…
2020-06-09 04:12:27.331244: I tensorflow/core/common_runtime/process_util.cc:147] Creating new thread pool with default inter op setting: 2. Tune using inter_op_parallelism_threads for best performance.
Model: "model"
__________________________________________________________________________________________________
Layer (type)                    Output Shape         Param #     Connected to                     
==================================================================================================
input_1 (InputLayer)            [(None, 64, 32, 2)]  0                                            
__________________________________________________________________________________________________
conv2d (Conv2D)                 (None, 64, 32, 8)    152         input_1[0][0]                    
__________________________________________________________________________________________________
batch_normalization (BatchNorma (None, 64, 32, 8)    32          conv2d[0][0]                     
__________________________________________________________________________________________________
activation (Activation)         (None, 64, 32, 8)    0           batch_normalization[0][0]        
__________________________________________________________________________________________________
conv2d_1 (Conv2D)               (None, 64, 32, 8)    584         activation[0][0]                 
__________________________________________________________________________________________________
batch_normalization_1 (BatchNor (None, 64, 32, 8)    32          conv2d_1[0][0]                   
__________________________________________________________________________________________________
dropout (Dropout)               (None, 64, 32, 8)    0           batch_normalization_1[0][0]      
__________________________________________________________________________________________________
activation_1 (Activation)       (None, 64, 32, 8)    0           dropout[0][0]                    
__________________________________________________________________________________________________
max_pooling2d (MaxPooling2D)    (None, 32, 16, 8)    0           activation_1[0][0]               
__________________________________________________________________________________________________
conv2d_2 (Conv2D)               (None, 32, 16, 16)   1168        max_pooling2d[0][0]              
__________________________________________________________________________________________________
batch_normalization_2 (BatchNor (None, 32, 16, 16)   64          conv2d_2[0][0]                   
__________________________________________________________________________________________________
activation_2 (Activation)       (None, 32, 16, 16)   0           batch_normalization_2[0][0]      
__________________________________________________________________________________________________
conv2d_3 (Conv2D)               (None, 32, 16, 16)   2320        activation_2[0][0]               
__________________________________________________________________________________________________
batch_normalization_3 (BatchNor (None, 32, 16, 16)   64          conv2d_3[0][0]                   
__________________________________________________________________________________________________
dropout_1 (Dropout)             (None, 32, 16, 16)   0           batch_normalization_3[0][0]      
__________________________________________________________________________________________________
activation_3 (Activation)       (None, 32, 16, 16)   0           dropout_1[0][0]                  
__________________________________________________________________________________________________
max_pooling2d_1 (MaxPooling2D)  (None, 16, 8, 16)    0           activation_3[0][0]               
__________________________________________________________________________________________________
conv2d_4 (Conv2D)               (None, 16, 8, 32)    4640        max_pooling2d_1[0][0]            
__________________________________________________________________________________________________
batch_normalization_4 (BatchNor (None, 16, 8, 32)    128         conv2d_4[0][0]                   
__________________________________________________________________________________________________
activation_4 (Activation)       (None, 16, 8, 32)    0           batch_normalization_4[0][0]      
__________________________________________________________________________________________________
conv2d_5 (Conv2D)               (None, 16, 8, 32)    9248        activation_4[0][0]               
__________________________________________________________________________________________________
batch_normalization_5 (BatchNor (None, 16, 8, 32)    128         conv2d_5[0][0]                   
__________________________________________________________________________________________________
dropout_2 (Dropout)             (None, 16, 8, 32)    0           batch_normalization_5[0][0]      
__________________________________________________________________________________________________
activation_5 (Activation)       (None, 16, 8, 32)    0           dropout_2[0][0]                  
__________________________________________________________________________________________________
max_pooling2d_2 (MaxPooling2D)  (None, 8, 4, 32)     0           activation_5[0][0]               
__________________________________________________________________________________________________
conv2d_6 (Conv2D)               (None, 8, 4, 64)     18496       max_pooling2d_2[0][0]            
__________________________________________________________________________________________________
batch_normalization_6 (BatchNor (None, 8, 4, 64)     256         conv2d_6[0][0]                   
__________________________________________________________________________________________________
activation_6 (Activation)       (None, 8, 4, 64)     0           batch_normalization_6[0][0]      
__________________________________________________________________________________________________
conv2d_7 (Conv2D)               (None, 8, 4, 64)     36928       activation_6[0][0]               
__________________________________________________________________________________________________
batch_normalization_7 (BatchNor (None, 8, 4, 64)     256         conv2d_7[0][0]                   
__________________________________________________________________________________________________
dropout_3 (Dropout)             (None, 8, 4, 64)     0           batch_normalization_7[0][0]      
__________________________________________________________________________________________________
activation_7 (Activation)       (None, 8, 4, 64)     0           dropout_3[0][0]                  
__________________________________________________________________________________________________
max_pooling2d_3 (MaxPooling2D)  (None, 4, 2, 64)     0           activation_7[0][0]               
__________________________________________________________________________________________________
conv2d_8 (Conv2D)               (None, 4, 2, 128)    73856       max_pooling2d_3[0][0]            
__________________________________________________________________________________________________
batch_normalization_8 (BatchNor (None, 4, 2, 128)    512         conv2d_8[0][0]                   
__________________________________________________________________________________________________
activation_8 (Activation)       (None, 4, 2, 128)    0           batch_normalization_8[0][0]      
__________________________________________________________________________________________________
conv2d_9 (Conv2D)               (None, 4, 2, 128)    147584      activation_8[0][0]               
__________________________________________________________________________________________________
batch_normalization_9 (BatchNor (None, 4, 2, 128)    512         conv2d_9[0][0]                   
__________________________________________________________________________________________________
dropout_4 (Dropout)             (None, 4, 2, 128)    0           batch_normalization_9[0][0]      
__________________________________________________________________________________________________
activation_9 (Activation)       (None, 4, 2, 128)    0           dropout_4[0][0]                  
__________________________________________________________________________________________________
conv2d_transpose (Conv2DTranspo (None, 8, 4, 64)     32832       activation_9[0][0]               
__________________________________________________________________________________________________
concatenate (Concatenate)       (None, 8, 4, 128)    0           activation_7[0][0]               
                                                                 conv2d_transpose[0][0]           
__________________________________________________________________________________________________
conv2d_10 (Conv2D)              (None, 8, 4, 64)     73792       concatenate[0][0]                
__________________________________________________________________________________________________
batch_normalization_10 (BatchNo (None, 8, 4, 64)     256         conv2d_10[0][0]                  
__________________________________________________________________________________________________
dropout_5 (Dropout)             (None, 8, 4, 64)     0           batch_normalization_10[0][0]     
__________________________________________________________________________________________________
activation_10 (Activation)      (None, 8, 4, 64)     0           dropout_5[0][0]                  
__________________________________________________________________________________________________
conv2d_11 (Conv2D)              (None, 8, 4, 64)     36928       activation_10[0][0]              
__________________________________________________________________________________________________
batch_normalization_11 (BatchNo (None, 8, 4, 64)     256         conv2d_11[0][0]                  
__________________________________________________________________________________________________
activation_11 (Activation)      (None, 8, 4, 64)     0           batch_normalization_11[0][0]     
__________________________________________________________________________________________________
conv2d_transpose_1 (Conv2DTrans (None, 16, 8, 32)    8224        activation_11[0][0]              
__________________________________________________________________________________________________
concatenate_1 (Concatenate)     (None, 16, 8, 64)    0           activation_5[0][0]               
                                                                 conv2d_transpose_1[0][0]         
__________________________________________________________________________________________________
conv2d_12 (Conv2D)              (None, 16, 8, 32)    18464       concatenate_1[0][0]              
__________________________________________________________________________________________________
batch_normalization_12 (BatchNo (None, 16, 8, 32)    128         conv2d_12[0][0]                  
__________________________________________________________________________________________________
dropout_6 (Dropout)             (None, 16, 8, 32)    0           batch_normalization_12[0][0]     
__________________________________________________________________________________________________
activation_12 (Activation)      (None, 16, 8, 32)    0           dropout_6[0][0]                  
__________________________________________________________________________________________________
conv2d_13 (Conv2D)              (None, 16, 8, 32)    9248        activation_12[0][0]              
__________________________________________________________________________________________________
batch_normalization_13 (BatchNo (None, 16, 8, 32)    128         conv2d_13[0][0]                  
__________________________________________________________________________________________________
activation_13 (Activation)      (None, 16, 8, 32)    0           batch_normalization_13[0][0]     
__________________________________________________________________________________________________
conv2d_transpose_2 (Conv2DTrans (None, 32, 16, 16)   2064        activation_13[0][0]              
__________________________________________________________________________________________________
concatenate_2 (Concatenate)     (None, 32, 16, 32)   0           activation_3[0][0]               
                                                                 conv2d_transpose_2[0][0]         
__________________________________________________________________________________________________
conv2d_14 (Conv2D)              (None, 32, 16, 16)   4624        concatenate_2[0][0]              
__________________________________________________________________________________________________
batch_normalization_14 (BatchNo (None, 32, 16, 16)   64          conv2d_14[0][0]                  
__________________________________________________________________________________________________
dropout_7 (Dropout)             (None, 32, 16, 16)   0           batch_normalization_14[0][0]     
__________________________________________________________________________________________________
activation_14 (Activation)      (None, 32, 16, 16)   0           dropout_7[0][0]                  
__________________________________________________________________________________________________
conv2d_15 (Conv2D)              (None, 32, 16, 16)   2320        activation_14[0][0]              
__________________________________________________________________________________________________
batch_normalization_15 (BatchNo (None, 32, 16, 16)   64          conv2d_15[0][0]                  
__________________________________________________________________________________________________
activation_15 (Activation)      (None, 32, 16, 16)   0           batch_normalization_15[0][0]     
__________________________________________________________________________________________________
conv2d_16 (Conv2D)              (None, 32, 16, 3)    51          activation_15[0][0]              
==================================================================================================
Total params: 486,403
Trainable params: 484,963
Non-trainable params: 1,440
__________________________________________________________________________________________________
Epoch 1/10
y_pred shape: (32, 16)
y_pred shape: (32, 16)
 1/40 [.................
…
